…
ecurrent.UnifiedLSTM object at 0x7f4f34285ef0>\nW0414 15:18:16.006853 139980101556096 tf_logging.py:161] <tensorflow.python.keras.layers.recurrent.UnifiedLSTM object at 0x7f4f342a6748>\nW0414 15:18:16.013553 139980101556096 tf_logging.py:161] <tensorflow.python.keras.layers.recurrent.UnifiedLSTM object at 0x7f4f342a6e48>print(model.summary ())\nModel: \"sequential\"\n_________________________________________________________________\nLayer (type)                 Output Shape              Param #   \n=================================================================\nunified_lstm (UnifiedLSTM)   (None, 60, 50)            10400     \n_________________________________________________________________\ndropout (Dropout)            (None, 60, 50)            0         \n_________________________________________________________________\nunified_lstm_1 (UnifiedLSTM) (None, 60, 50)            20200     \n_________________________________________________________________\ndropout_1 (Dropout)          (None, 60, 50)            0         \n_________________________________________________________________\nunified_lstm_2 (UnifiedLSTM) (None, 60, 50)            20200     \n_________________________________________________________________\ndropout_2 (Dropout)          (None, 60, 50)            0         \n_________________________________________________________________\nunified_lstm_3 (UnifiedLSTM) (None, 50)                20200     \n_________________________________________________________________\ndropout_3 (Dropout)          (None,", "start_char_idx": null, "end_char_idx": null, "text_template": "{metadata_str}\n\n{content}", "metadata_template": "{key}: {value}", "metadata_seperator": "\n"}, "__type__": "1"}, "c8561c4e-b10b-4090-996a-a93f95ccbd0f": {"__data__": {"id_": "c8561c4e-b10b-4090-996a-a93f95ccbd0f", "embedd
…
